…
- This IS expected if you are initializing BertModel from the checkpoint of a model trained on another task or with another architecture (e.g. initializing a BertForSequenceClassification model from a BertForPreTraining model).
- This IS NOT expected if you are initializing BertModel from the checkpoint of a model that you expect to be exactly identical (initializing a BertForSequenceClassification model from a BertForSequenceClassification model).
{0: 581, 1: 1040, 2: 2879}
load model weight from: /home/deepankar/scratch/MSA_Medical/
MedCLIPModel(
  (vision_model): MedCLIPVisionModelViT(
    (model): SwinModel(
      (embeddings): SwinEmbeddings(
        (patch_embeddings): SwinPatchEmbeddings(
          (projection): Conv2d(3, 96, kernel_size=(4, 4), stride=(4, 4))
        )
        (norm): LayerNorm((96,), eps=1e-05, elementwise_affine=True)
        (dropout): Dropout(p=0.0, inplace=False)
      )
      (encoder): SwinEncoder(
        (layers): ModuleList(
          (0): SwinStage(
            (blocks): ModuleList(
              (0-1): 2 x SwinLayer(
                (layernorm_before): LayerNorm((96,), eps=1e-05, elementwise_affine=True)
                (attention): SwinAttention(
                  (self): SwinSelfAttention(
                    (query): Linear(in_features=96, out_features=96, bias=True)
                    (key): Linear(in_features=96, out_features=96, bias=True)
                    (value): Linear(in_features=96, out_features=96, bias=True)
                    (dropout): Dropout(p=0.0, inplace=False)
                  )
                  (output): SwinSelfOutput(
                    (dense): Linear(in_features=96, out_features=96, bias=True)
                    (dropout): Dropout(p=0.0, inplace=False)
                  )
                )
                (drop_path): SwinDropPath(p=0.1)
                (layernorm_after): LayerNorm((96,), eps=1e-05, elementwise_affine=True)
                (intermediate): SwinIntermediate(
                  (dense): Linear(in_features=96, out_features=384, bias=True)
                  (intermediate_act_fn): GELUActivation()
                )
                (output): SwinOutput(
                  (dense): Linear(in_features=384, out_features=96, bias=True)
                  (dropout): Dropout(p=0.0, inplace=False)
                )
              )
            )
            (downsample): SwinPatchMerging(
              (reduction): Linear(in_features=384, out_features=192, bias=False)
              (norm): LayerNorm((384,), eps=1e-05, elementwise_affine=True)
            )
          )
          (1): SwinStage(
            (blocks): ModuleList(
              (0-1): 2 x SwinLayer(
                (layernorm_before): LayerNorm((192,), eps=1e-05, elementwise_affine=True)
                (attention): SwinAttention(
                  (self): SwinSelfAttention(
                    (query): Linear(in_features=192, out_features=192, bias=True)
                    (key): Linear(in_features=192, out_features=192, bias=True)
                    (value): Linear(in_features=192, out_features=192, bias=True)
                    (dropout): Dropout(p=0.0, inplace=False)
                  )
                  (output): SwinSelfOutput(
                    (dense): Linear(in_features=192, out_features=192, bias=True)
                    (dropout): Dropout(p=0.0, inplace=False)
                  )
                )
                (drop_path): SwinDropPath(p=0.1)
                (layernorm_after): LayerNorm((192,), eps=1e-05, elementwise_affine=True)
                (intermediate): SwinIntermediate(
                  (dense): Linear(in_features=192, out_features=768, bias=True)
                  (intermediate_act_fn): GELUActivation()
                )
                (output): SwinOutput(
                  (dense): Linear(in_features=768, out_features=192, bias=True)
                  (dropout): Dropout(p=0.0, inplace=False)
                )
              )
            )
            (downsample): SwinPatchMerging(
              (reduction): Linear(in_features=768, out_features=384, bias=False)
              (norm): LayerNorm((768,), eps=1e-05, elementwise_affine=True)
            )
          )
          (2): SwinStage(
            (blocks): ModuleList(
              (0-5): 6 x SwinLayer(
                (layernorm_before): LayerNorm((384,), eps=1e-05, elementwise_affine=True)
                (attention): SwinAttention(
                  (self): SwinSelfAttention(
                    (query): Linear(in_features=384, out_features=384, bias=True)
                    (key): Linear(in_features=384, out_features=384, bias=True)
                    (value): Linear(in_features=384, out_features=384, bias=True)
                    (dropout): Dropout(p=0.0, inplace=False)
                  )
                  (output): SwinSelfOutput(
                    (dense): Linear(in_features=384, out_features=384, bias=True)
                    (dropout): Dropout(p=0.0, inplace=False)
                  )
                )
                (drop_path): SwinDropPath(p=0.1)
                (layernorm_after): LayerNorm((384,), eps=1e-05, elementwise_affine=True)
                (intermediate): SwinIntermediate(
                  (dense): Linear(in_features=384, out_features=1536, bias=True)
                  (intermediate_act_fn): GELUActivation()
                )
                (output): SwinOutput(
                  (dense): Linear(in_features=1536, out_features=384, bias=True)
                  (dropout): Dropout(p=0.0, inplace=False)
                )
              )
            )
            (downsample): SwinPatchMerging(
              (reduction): Linear(in_features=1536, out_features=768, bias=False)
              (norm): LayerNorm((1536,), eps=1e-05, elementwise_affine=True)
            )
          )
          (3): SwinStage(
            (blocks): ModuleList(
              (0-1): 2 x SwinLayer(
                (layernorm_before): LayerNorm((768,), eps=1e-05, elementwise_affine=True)
                (attention): SwinAttention(
                  (self): SwinSelfAttention(
                    (query): Linear(in_features=768, out_features=768, bias=True)
                    (key): Linear(in_features=768, out_features=768, bias=True)
                    (value): Linear(in_features=768, out_features=768, bias=True)
                    (dropout): Dropout(p=0.0, inplace=False)
                  )
                  (output): SwinSelfOutput(
                    (dense): Linear(in_features=768, out_features=768, bias=True)
                    (dropout): Dropout(p=0.0, inplace=False)
                  )
                )
                (drop_path): SwinDropPath(p=0.1)
                (layernorm_after): LayerNorm((768,), eps=1e-05, elementwise_affine=True)
                (intermediate): SwinIntermediate(
                  (dense): Linear(in_features=768, out_features=3072, bias=True)
                  (intermediate_act_fn): GELUActivation()
                )
                (output): SwinOutput(
                  (dense): Linear(in_features=3072, out_features=768, bias=True)
                  (dropout): Dropout(p=0.0, inplace=False)
                )
              )
            )
          )
        )
      )
      (layernorm): LayerNorm((768,), eps=1e-05, elementwise_affine=True)
      (pooler): AdaptiveAvgPool1d(output_size=1)
    )
    (projection_head): Linear(in_features=768, out_features=512, bias=False)
  )
  (text_model): MedCLIPTextModel(
    (model): BertModel(
      (embeddings): BertEmbeddings(
        (word_embeddings): Embedding(28996, 768, padding_idx=0)
        (position_embeddings): Embedding(512, 768)
        (token_type_embeddings): Embedding(2, 768)
        (LayerNorm): LayerNorm((768,), eps=1e-12, elementwise_affine=True)
        (dropout): Dropout(p=0.1, inplace=False)
      )
      (encoder): BertEncoder(
        (layer): ModuleList(
          (0-11): 12 x BertLayer(
            (attention): BertAttention(
              (self): BertSelfAttention(
                (query): Linear(in_features=768, out_features=768, bias=True)
                (key): Linear(in_features=768, out_features=768, bias=True)
                (value): Linear(in_features=768, out_features=768, bias=True)
                (dropout): Dropout(p=0.1, inplace=False)
              )
              (output): BertSelfOutput(
                (dense): Linear(in_features=768, out_features=768, bias=True)
                (LayerNorm): LayerNorm((768,), eps=1e-12, elementwise_affine=True)
                (dropout): Dropout(p=0.1, inplace=False)
              )
            )
            (intermediate): BertIntermediate(
              (dense): Linear(in_features=768, out_features=3072, bias=True)
              (intermediate_act_fn): GELUActivation()
            )
            (output): BertOutput(
              (dense): Linear(in_features=3072, out_features=768, bias=True)
              (LayerNorm): LayerNorm((768,), eps=1e-12, elementwise_affine=True)
              (dropout): Dropout(p=0.1, inplace=False)
            )
          )
        )
      )
      (pooler): BertPooler(
        (dense): Linear(in_features=768, out_features=768, bias=True)
        (activation): Tanh()
      )
    )
    (projection_head): Linear(in_features=768, out_features=512, bias=False)
  )
)
Thief model initialized successfully
Traceback (most recent call last):
  File "activethief_gbc.py", line 103, in <module>
    acc, f1, spec, sens = testz(thief_model, test_loader, no_roi=False)
  File "/nvme/scratch/deepankar/MSA_Medical/activethief/train_utils_gbc.py", line 33, in testz
    outputs = model(input_var)
  File "/home/deepankar/scratch/miniconda3/envs/msa/lib/python3.8/site-packages/torch/nn/modules/module.py", line 1511, in _wrapped_call_impl
…
